data/dummy_policies/g5/ac_final.pt (torch, 47735 bytes, 19 tensors)

in_ac.weight f4 [32, 64]
0.058367882 -0.017725458 0.045255348 -0.01180159 0.0345853 0.012956491 0.0013319893 -0.09040657
0.031909384 -0.09964872 0.03796703 0.00080121827 -0.031049805 0.11851189 0.011433154 0.07864482
0.07961598 -0.04711491 -0.02150652 0.14668696 -0.096033834 0.017884003 0.016457964 0.115062684
0.014536591 0.05938402 0.020525238 -0.043378975 -0.044167783 -0.033962253 -0.08673719 -0.054274116
0.056297842 0.10915811 0.033050384 -0.030414918 0.08180524 -0.021114469 -0.0008157699 -0.04614635
-0.015951881 -0.092265904 0.07682883 0.072126985 0.0477877 0.08384745 0.075308934 0.02789072
0.035882685 0.03244858 0.089193374 0.10600846 0.11176994 0.09420208 -0.008335696 0.0166086
-0.0028106612 0.0953602 0.037027083 0.13953446 0.087869205 -0.08220285 0.06168421 0.13035585
0.10355851 -0.0040198117 0.041814577 -0.11745661 -0.040066313 0.059431694 -0.112822145 0.10122382
-0.08213686 0.034907587 -0.008760791 0.01714653 0.0072098197 -0.10957946 -0.021350518 -0.08678803
0.09844632 -0.023147646 -0.13225266 0.022523584 0.04652545 -0.063693926 -0.01944789 0.046360843
-0.08542171 -0.07369692 -0.01967212 -0.095361665 0.06925764 0.0026214013 0.06714466 0.05926464
-0.104017735 -0.085581884 -0.09316784 -0.047859512 -0.053370304 -0.027812105 -0.12855832 0.05223025
0.06886647 0.036148924 0.07563387 0.090013586 -0.12783773 0.014209972 0.11158564 -0.09392615
-0.058596037 -0.01025746 -0.08140341 -0.028453257 -0.02358467 0.10644163 -0.013864597 0.061928555
0.08569103 0.050374392 -0.11463714 0.08760384 0.07644215 -0.095734484 -0.050524805 0.0798301
-0.08649766 -0.08758374 -0.06583678 0.03913776 -0.06951952 -0.124088444 0.068729214 0.08467622
0.05856679 -0.08989768 0.14248261 -0.018972782 -0.13396753 -0.030106273 0.103621095 0.08908168
0.030087892 0.11948596 -0.082712434 0.118034594 0.15535384 -0.044741463 0.05808514 0.011119326
-0.07424641 0.030192137 -0.010593899 -0.07544274 -0.059737153 0.03411547 0.1473004 0.07620351
-0.051708598 0.11767421 0.04170599 -0.09071032 0.037354145 0.11166431 -0.042074677 0.021124894
-0.03452757 -0.070293725 -0.042766765 0.041299433 0.10932603 0.005395739 -0.083533525 0.028035244
-0.07986961 0.036343355 0.12144879 0.08185279 -0.047948018 0.000677596 0.07844284 0.062416416
-0.08862354 -0.0440649 -0.015365119 0.07493637 0.14072067 0.084879726 0.07701012 -0.09094602
0.1256652 0.06973975 -0.013759158 -0.057912283 0.009337011 -0.090453625 0.076626755 0.11963941
-0.07159381 -0.055307545 -0.049566902 -0.12552641 -0.02679556 0.09541915 0.05278683 0.00077859656
0.025426138 -0.01349777 -0.06009957 0.006639357 0.049335457 -0.022701608 -0.0529568 0.07721502
0.059125707 0.0018593704 0.07500707 0.15636452 0.047712788 -0.04473385 0.15657474 0.13097359
0.02910881 -0.0154236145 -0.01171603 0.1500109 0.106303506 -0.023272706 0.046009056 0.06179646
0.07024912 0.030686833 -0.027492173 0.03474327 0.0039171474 -0.0034334594 -0.023538953 -0.022450656
-0.020724611 0.087516785 -0.06763453 -0.0810524 0.14473161 0.08272542 0.10707153 0.09230894
-0.009542835 -0.03992756 -0.04639853 0.031341407 0.07049766 -0.07738118 -0.055792958 0.078378305
00000000: 2913 6f3d fb34 91bc ac5d 393d 755b 41bc
00000010: 51a9 0d3d 7647 543c 2596 ae3a 1427 b9bd
00000020: 6ab3 023d a114 ccbd 5183 1b3d d908 523a
00000030: 295c febc 5db6 f23d 2052 3b3c 8910 a13d
00000040: b40d a33d 90fb 40bd 712e b0bc 1b35 163e
00000050: 63ad c4bd 7981 923c dad2 863c fca5 eb3d
00000060: e22a 6e3c a83c 733d 8b24 a83c 27ae 31bd
00000070: 47e9 34bd 011c 0bbd 45a3 b1bd 894e 5ebd
00000080: 9198 663d 4a8e df3d d75f 073d b528 f9bc
00000090: 8189 a73d 40f8 acbc 64d9 55ba f503 3dbd
000000a0: 85ad 82bc e8f5 bcbd 6f58 9d3d 50b7 933d
000000b0: 09bd 433d 36b8 ab3d 923b 9a3d 147b e43c
000000c0: b9f9 123d cde8 043d 04ab b63d f71a d93d
000000d0: a3e7 e43d 05ed c03d 7192 08bc c20e 883c
000000e0: 1233 38bb 354c c33d b6a9 173d 1fe2 0e3e
000000f0: c5f4 b33d f859 a8bd 95a8 7c3d 017c 053e
00000100: 7c16 d43d a0b8 83bb c345 2b3d 178d f0bd
00000110: 931c 24bd a66e 733d 4c0f e7bd 6f4e cf3d
00000120: 5f37 a8bd 42fb 0e3d 6c89 0fbc e176 8c3c
00000130: 5a40 ec3b 326b e0bd 48e7 aebc ecbd b1bd
00000140: 399e c93d 22a0 bdbc 3e6d 07be 6183 b83c
00000150: 7891 3e3d f671 82bd 2e51 9fbc dee4 3d3d
00000160: 94f1 aebd 69ee 96bd 6d27 a1bc fa4c c3bd
00000170: f3d6 8d3d d1cb 2b3b 2483 893d 7bbf 723d
00000180: 4007 d5bd 8e45 afbd c8ce bebd 5608 44bd
00000190: d29a 5abd 36d6 e3bc cba4 03be 63ef 553d
000001a0: dd09 8d3d e510 143d eee5 9a3d 0b59 b83d
000001b0: e5e7 02be f1d0 683c 0387 e43d 5a5c c0bd
000001c0: 6602 70bd e80e 28bc d5b6 a6bd ce16 e9bc
000001d0: a334 c1bc 12fe d93d 5628 63bc cca8 7d3d
000001e0: c77e af3d 6155 4e3d e0c6 eabd a469 b33d
000001f0: b48d 9c3d 7110 c4bd 19f3 4ebd f77d a33d
00000200: af25 b1bd 1b5f b3bd 6fd5 86bd ea4e 203d
00000210: 4060 8ebd 1522 febd e7c1 8c3d ba6a ad3d
00000220: bbe3 6f3d 461c b8bd f6e6 113e cf6c 9bbc
00000230: c92e 09be 6ea1 f6bc 4c37 d43d 7570 b63d
00000240: e27a f63c 0eb5 f43d 2365 a9bd 1fbc f13d
00000250: 1415 1f3e d342 37bd afea 6d3d d52d 363c
00000260: 800e 98bd 8055 f73c 0892 2dbc b981 9abd
00000270: f2ae 74bd aabc 0b3d ebd5 163e 9610 9c3d
00000280: 65cc 53bd 2dff f03d e6d3 2a3d 55c6 b9bd
00000290: a900 193d 42b0 e43d 7f56 2cbd 1d0e ad3c
000002a0: c86c 0dbd 28f6 8fbd 342c 2fbd 9829 293d
000002b0: 53e6 df3d bdce b03b a013 abbd 2baa e53c
000002c0: ae92 a3bd c5dc 143d 25ba f83d 70a2 a73d
000002d0: 2465 44bd b3a0 313a a4a6 a03d 5ba8 7f3d
000002e0: 4280 b5bd 667d 34bd fbbd 7bbc 3d78 993d
000002f0: 1419 103e 6cd5 ad3d 7bb7 9d3d e841 babd
00000300: 61ae 003e b7d3 8e3d 176e 61bc 6e35 6dbd
00000310: 43fa 183c c03f b9bd 7dee 9c3d 8205 f53d
00000320: c79f 92bd 2a8a 62bd aa06 4bbd ff89 00be
00000330: 5d82 dbbc 1e6b c33d 0137 583d bb1a 4c3a
00000340: 7a4a d03c c025 5dbc f72a 76bd f78e d93b
00000350: fa13 4a3d b9f8 b9bc 3be9 58bd e922 9e3d
00000360: cc2d 723d 1eb6 f33a 4f9d 993d 051e 203e
00000370: 7c6e 433d d73a 37bd 2155 203e f11d 063e
00000380: 9975 ee3c 54b3 7cbc 97f4 3fbc 759c 193e
00000390: a7b5 d93d 67a6 bebc fe73 3c3d 491e 7d3d
000003a0: c5de 8f3d f462 fb3c 4437 e1bc f64e 0e3d
000003b0: 6a5b 803b e403 61bb c3d4 c0bc 70ea b7bc
000003c0: a9c6 a9bc 003c b33d f983 8abd cdfe a5bd
000003d0: 8634 143e f26b a93d 5148 db3d 780c bd3d
000003e0: 8d59 1cbc 158b 23bd 630c 3ebd d95f 003d
000003f0: 1461 903d 067a 9ebd 2887 64bd ce84 a03d

in_ac.bias f4 [32]
0.0709328 -0.024921564 0.040929597 -0.005333416 -0.09198374 0.094398856 0.06604239 0.10489172
-0.10859588 -0.065163516 0.09578591 0.05445728 -0.12963909 0.028164763 -0.08840273 0.1604844
0.06936059 0.10786301 0.031941738 0.025637109 0.016077165 0.15886131 0.08894429 0.10854372
-0.11998764 0.14568034 0.0752385 0.081088684 -0.08923878 -0.081287 0.14200717 0.038837522
00000000: 3745 913d 4f28 ccbc cba5 273d f0c3 aebb
00000010: f961 bcbd 3054 c13d 3c41 873d 78d1 d63d
00000020: 8467 debd 7374 85bd 672b c43d 990e 5f3d
00000030: 1cc0 04be cab9 e63c 7e0c b5bd 0656 243e
00000040: ed0c 8e3d 48e7 dc3d 57d5 023d ea04 d23c
00000050: 42b4 833c 8aac 223e 6d28 b63d 2b4c de3d
00000060: 14bc f5bd 3a2d 153e a516 9a3d d311 a63d
00000070: d2c2 b6bd cc79 a6bd 546a 113e 1814 1f3d

in_cr.weight f4 [32, 54]
0.07218747 0.04802141 0.061456054 -0.1217007 0.007024372 0.020806897 0.018984111 0.1125682
0.061104324 0.03237348 -0.019724445 -0.021035023 -0.09263509 0.102212735 0.13775757 0.00815655
0.095243715 0.14414603 0.13437536 -0.021040497 0.12466217 0.117016 0.036399864 0.052469548
-0.06552313 -0.0062450017 0.116358414 0.12775342 0.018454198 0.13856263 -0.096950345 0.13983516
-0.1194042 0.119734585 -0.081701465 -0.11052589 -0.053646527 0.12096355 -0.020875894 0.06507174
0.015288337 -0.1270472 -0.115451045 -0.035142537 0.066582516 0.12635006 0.083646975 -0.05738203
0.0051631895 0.07531225 -0.008835368 0.14249341 -0.10656703 0.11056587 0.02968246 0.010431502
-0.06406004 0.026995158 -0.12400599 0.11563931 0.06668508 0.11461846 0.11400903 0.09132235
0.15603761 0.10786133 0.11146534 0.04511369 0.1374746 0.109396964 0.114692606 0.07402142
0.0039272443 0.16398433 -0.08853316 0.1590558 0.045351043 -0.046210803 0.13227923 0.0124871135
0.012639795 0.026852705 0.007982167 -0.05519698 0.06082891 0.032629 0.10172137 0.091728516
-0.024896372 -0.02234989 0.054045588 0.038391214 0.12090241 -0.050359346 0.080325715 -0.0076629114
-0.090813905 0.060008842 -0.04491206 0.14507978 -0.06354454 -0.0705095 0.1356451 -0.073253624
-0.048471216 -0.09339882 0.13783926 0.019297227 0.1237402 -0.103335924 -0.058779497 0.057083663
0.12251245 -0.076897226 0.1751308 0.008296655 -0.07952397 0.071496435 -0.0284351 0.03848564
0.033870567 0.1161713 -0.008553116 0.10475015 -0.08154852 0.064847946 0.080072455 0.03616541
-0.08586544 0.034386884 0.020669322 0.12168467 -0.053547546 0.11714396 -0.050711103 0.11329277
0.043568812 -0.023459267 -0.028878722 0.097563036 0.068825915 0.020357504 0.011168178 -0.045850266
0.059867043 0.117821924 -0.090838 -0.014247344 -0.018806228 0.054909095 0.12584072 0.079316236
0.11353374 0.008768539 -0.05558855 0.016709669 -0.03694372 -0.008739935 0.1272503 0.02828372
-0.09649134 0.087832645 -0.046748552 -0.0797922 -0.07313106 -0.048610687 -0.07534224 0.14508292
0.04295792 0.0014427933 -0.08704883 0.14727111 0.07352211 0.15230137 0.052391637 -0.10598978
0.010199748 -0.07933408 0.057501115 -0.035767972 -0.0190681 0.13098598 0.015243529 0.070887975
0.12689044 0.1525382 -0.06563936 -0.047693573 0.08058048 -0.055341866 -0.016300151 -0.08121896
-0.10944833 0.10223557 0.12454367 -0.10880176 -0.07096064 -0.03918095 -0.09590492 -0.13922335
-0.03849542 -0.04511249 -0.08686947 0.0025211254 -0.017399646 0.085607775 -0.0069541554 -0.009089963
0.13235025 0.04014561 -0.01853072 -0.11600519 0.055066682 0.041715533 0.11134267 -0.16835712
0.05440784 0.09197766 -0.12342664 0.10571035 -0.0904837 0.16590834 0.049993914 -0.027719969
-0.08493129 0.049190257 0.14305593 -0.06462595 -0.050289787 0.14036243 0.07030242 0.015287214
0.051952656 0.09473617 0.1408701 -0.0007797569 -0.038924046 0.15593717 0.020107841 0.17727748
0.053796202 0.15196107 0.010077894 0.08962548 0.01586576 -0.046911225 0.13726008 -0.035712853
-0.09543732 0.030303588 0.054434754 0.122627035 0.10825131 -0.036868602 0.0013254271 0.11296035
00000000: 06d7 933d 19b2 443d 58b9 7b3d 373e f9bd
00000010: b42c e63b 3a73 aa3c 9184 9b3c 288a e63d
00000020: 8748 7a3d 0e9a 043d 2995 a1bc a451 acbc
00000030: 77b7 bdbd e954 d13d 5210 0d3e 0da3 053c
00000040: 230f c33d 049b 133e b299 093e 1f5d acbc
00000050: e14e ff3d 16a6 ef3d 0618 153d 4fea 563d
00000060: fe30 86bd dfa2 ccbb 524d ee3d cbd1 023e
00000070: 422d 973c 5de3 0d3e e78d c6bd f330 0f3e
00000080: 308a f4bd 6837 f53d 1953 a7bd 665b e2bd
00000090: 76bc 5bbd bdbb f73d ec03 abbc 5544 853d
000000a0: ef7b 7a3c a918 02be 9971 ecbd 9ff1 0fbd
000000b0: 6a5c 883d e961 013e 1b4f ab3d 6b09 6bbd
000000c0: f92f a93b 4f3d 9a3d 38c2 10bc cbe9 113e
000000d0: d13f dabd 5c70 e23d a128 f33c e4e8 2a3c
000000e0: e931 83bd f324 dd3c daf6 fdbd 4dd4 ec3d
000000f0: 3092 883d 15bd ea3d 917d e93d 3607 bb3d
00000100: 53c8 1f3e 67e6 dc3d f147 e43d 22c9 383d
00000110: 24c6 0c3e 840b e03d f5e3 ea3d 8b98 973d
00000120: 1db0 803b 82eb 273e e050 b5bd 86df 223e
00000130: 04c2 393d 8a47 3dbd 3574 073e c096 4c3c
00000140: 2517 4f3c 34fa db3c a3c7 023c 3a16 62bd
00000150: bc27 793d fca5 053d 4b53 d03d 29dc bb3d
00000160: 7af3 cbbc 1e17 b7bc e85e 5d3d 1b40 1d3d
00000170: af9b f73d 9a45 4ebd cf81 a43d 2919 fbbb
00000180: a4fc b9bd d5cb 753d b5f5 37bd cb8f 143e
00000190: a423 82bd 4967 90bd 8de6 0a3e ff05 96bd
000001a0: c189 46bd e147 bfbd bc25 0d3e 3815 9e3c
000001b0: 816b fd3d c9a1 d3bd c5c2 70bd 8fd0 693d
000001c0: cfe7 fa3d 4b7c 9dbd 7d55 333e b1ee 073c
000001d0: 77dd a2bd b96c 923d baf0 e8bc 1ea3 1d3d
000001e0: ddbb 0a3d 38eb ed3d 5e22 0cbc 3f87 d63d
000001f0: e902 a7bd 00cf 843d 07fd a33d 2e22 143d
00000200: 38da afbd 43d9 0c3d b652 a93c d035 f93d
00000210: ac54 5bbd 2ce9 ef3d 72b6 4fbd 0a06 e83d
00000220: 3675 323d a62d c0bc 1293 ecbc 21cf c73d
00000230: 9af4 8c3d c8c4 a63c bcfa 363c 7dcd 3bbd
00000240: 2537 753d 9f4c f13d 4609 babd b16d 69bc
00000250: 850f 9abc 5ce8 603d 64dc 003e 8d70 a23d
00000260: 6184 e83d eba9 0f3c d2b0 63bd b7e2 883c
00000270: 4c52 17bd f231 0fbc e74d 023e 43b3 e73c
00000280: 409d c5bd 9ae1 b33d 697b 3fbd 186a a3bd
00000290: bdc5 95bd 001c 47bd 084d 9abd 9e90 143e
000002a0: a5f4 2f3d 1c1c bd3a a846 b2bd 3dce 163e
000002b0: c392 963d e4f4 1b3e 9d98 563d 2b11 d9bd
000002c0: d81c 273c e879 a2bd 4a86 6b3d 7081 12bd
000002d0: b434 9cbc 3021 063e ffbf 793c b72d 913d
000002e0: 91ef 013e f932 1c3e ee6d 86bd 565a 43bd
000002f0: 6107 a53d 27ae 62bd e587 85bc 2056 a6bd
00000300: 7226 e0bd e260 d13d c010 ff3d 75d3 debd
00000310: d053 91bd 347c 20bd cc69 c4bd 9190 0ebe
00000320: 60ad 1dbd e0c7 38bd 9fe8 b1bd 7739 253b
00000330: b489 8ebc 2153 af3d afdf e3bb 11ee 14bc
00000340: d386 073e b96f 243d bdcd 97bc 2194 edbd
00000350: 9a8d 613d e8dd 2a3d a007 e43d cf65 2cbe
00000360: c1da 5e3d c95e bc3d 1bc7 fcbd ab7e d83d
00000370: 854f b9bd e0e3 293e 6bc6 4c3d fd14 e3bc
00000380: 75f0 adbd b97b 493d 417d 123e 9c5a 84bd
00000390: aafc 4dbd 2bbb 0f3e b7fa 8f3d 3977 7a3c
000003a0: 4fcc 543d 0905 c23d 4040 103e 9a68 4cba
000003b0: d26e 1fbd fead 1f3e 33b9 a43c 3a88 353e
000003c0: 6859 5c3d af9b 1b3e c01d 253c 908d b73d
000003d0: e9f8 813c fc25 40bd e88d 0c3e a447 12bd
000003e0: a474 c3bd 3b3f f83c faf6 5e3d e223 fb3d
000003f0: ddb2 dd3d 8803 17bd f4b9 ad3a c257 e73d

in_cr.bias f4 [32]
-0.007919048 0.017990813 0.12872772 -0.03260183 0.14132428 0.012833881 0.0735654 0.08619888
0.0380263 -0.03970196 -0.01191881 -0.04104958 0.07646859 -0.10725514 0.17148334 -0.022009708
-0.0014406578 0.16397116 -0.13570687 0.07328625 0.18180273 -0.07021785 -0.09360101 -0.060992293
-0.0014953869 -0.021044232 -0.05933862 0.058195565 -0.050313734 0.07714364 0.049259186 0.12001136
00000000: e5be 01bc 7861 933c 33d1 033e 7f89 05bd
00000010: 50b7 103e 3345 523c 75a9 963d 0a89 b03d
00000020: 77c1 1b3d 869e 22bd 1d47 43bc 9b23 28bd
00000030: 909b 9c3d 95a8 dbbd 5499 2f3e b44d b4bc
00000040: 74d4 bcba 0ee8 273e bef6 0abe 1a17 963d
00000050: 7f2a 3a3e 60ce 8fbd e3b1 bfbd 0ed3 79bd
00000060: dc00 c4ba f464 acbc 0e0d 73bd 795e 6e3d
00000070: c615 4ebd 7cfd 9d3d 00c4 493d 84c8 f53d

ac_layers.0.weight f4 [32, 32]
-0.12090492 -0.13637418 0.15451154 0.20284414 0.10279324 -0.06689279 0.17218645 -0.08542567
-0.15029979 0.10066387 -0.11695648 -0.1320699 -0.15883599 -0.07786318 0.099262275 0.014064351
0.123067714 0.20876367 0.19546692 0.17712261 0.130724 0.09095127 0.13606182 0.09177557
0.07598036 0.09217591 0.12939094 -0.134671 0.19957533 0.14833875 -0.05939028 0.10965453
0.07905389 0.035208613 -0.11143537 -0.024700347 0.15128335 -0.03697838 -0.08140667 -0.08262486
-0.061620213 0.095861025 -0.062405966 0.091974564 -0.13987 -0.1614192 0.11219389 -0.048152175
0.017526593 0.087834165 0.073376894 0.11820993 -0.08785305 0.13331242 -0.10280952 -0.043553125
0.16196434 0.12310699 -0.1214143 -0.14928307 0.10931742 0.051207405 0.0397615 0.1293128
0.1378389 -0.122713804 0.119657196 -0.16347264 -0.026946759 0.08750965 -0.12232563 -0.021175584
-0.114788055 -0.08086209 -0.10014141 0.013214574 -0.07390906 -0.011842723 -0.01925383 -0.019475358
0.13109043 -0.021518078 0.053469907 0.14544925 0.09914621 0.018458266 -0.14982519 0.020567419
0.09694554 -0.049085982 -0.1255295 0.08187901 -0.020531015 -0.15869465 -0.092930414 -0.14995761
0.15272968 -0.08471138 -0.054179344 -0.015896011 -0.072640546 0.047909573 0.09737593 0.03690607
-0.12812229 0.051381357 -0.11785514 -0.019436032 -0.08579185 0.122077785 -0.06339708 0.081634074
-0.016432384 0.01763504 0.20615844 0.00651586 -0.086658105 0.1403552 -0.04213342 -0.07738963
-0.14299399 0.104010575 0.035735022 -0.07875222 -0.062542416 -0.025270024 0.10321302 -0.068068065
-0.13690408 -0.0834224 0.06531427 0.14575316 0.10451979 0.18485545 0.052523013 -0.12593722
0.04274999 -0.065569244 0.12128193 -0.081853695 0.08537781 -0.13359737 0.06927283 0.0594775
0.12092402 0.11463149 0.1410749 0.093003064 -0.0392006 0.18151006 -0.13400164 -0.12859668
-0.0108820805 0.08700376 0.13226451 0.19600554 0.02609559 0.11341781 0.02251462 0.15950115
-0.10874222 0.07453581 -0.115965486 -0.044962537 -0.07041729 -0.021695761 -0.103377506 -0.18265153
0.03895272 -0.0024150738 -0.012676752 -0.0991417 0.11395632 0.14319025 -0.051379498 -0.18370585
0.051205408 -0.1837021 0.0439989 -0.13191165 -0.14276308 -0.10822778 0.07601468 0.033619273
0.03513746 0.14888546 -0.046201374 0.05136756 0.08917117 0.10826259 -0.18593633 -0.1013358
-0.17469122 -0.0494664 0.052023202 -0.082152955 -0.09857043 -0.074738435 0.003457804 -0.023185989
0.0017881677 0.09410051 -0.15303569 -0.0764254 -0.06401174 -0.08398932 0.110317126 -0.09892199
-0.06966783 0.096787125 0.083129875 -0.053287033 -0.062701866 0.0065461947 -0.0012584022 -0.08653627
-0.10408249 0.100609355 -0.14431483 -0.111911036 -0.042251743 0.120675325 -0.12321657 -0.04930006
0.11302286 0.068350285 0.079893455 -0.042883117 -0.04278272 -0.041696344 -0.020193817 0.01701108
-0.018029645 -0.018616654 -0.13240778 -0.08063999 0.06717829 -0.07437721 0.019377595 0.19770321
0.17301047 -0.097536564 0.04134979 0.016400617 -0.052500524 -0.025612025 0.0026556966 0.1338647
0.042962685 0.200593 0.09159336 0.20456104 0.16155177 0.052617565 0.08648622 -0.1347315
00000000: 009d f7bd aca5 0bbe 4638 1e3e 60b6 4f3e
00000010: 4385 d23d 16ff 88bd a551 303e a7f3 aebd
00000020: 30e8 19be dc28 ce3d e186 efbd 553d 07be
00000030: e7a5 22be bb76 9fbd 054a cb3d 2a6e 663c
00000040: ed0a fc3d 25c6 553e 7b28 483e a15f 353e
00000050: 83dc 053e a944 ba3d ca53 0b3e d4f4 bb3d
00000060: 979b 9b3d b9c6 bc3d 0f7f 043e 32e7 09be
00000070: 7a5d 4c3e 1de6 173e 3943 73bd 8e92 e03d
00000080: 02e7 a13d e836 103d 3a38 e4bd 6258 cabc
00000090: 06ea 1a3e a476 17bd 8ab8 a6bd 3937 a9bd
000000a0: 7a65 7cbd c952 c43d 669d 7fbd 295d bc3d
000000b0: 153a 0fbe 134b 25be e9c5 e53d 373b 45bd
000000c0: ee93 8f3c 66e2 b33d a046 963d 0c18 f23d
000000d0: 4dec b3bd 0d83 083e cc8d d2bd c364 32bd
000000e0: fbd9 253e 841f fc3d 0fa8 f8bd a9dd 18be
000000f0: d0e1 df3d dbbe 513d f4dc 223d 936a 043e
00000100: a425 0d3e 6051 fbbd d50e f53d 5f65 27be
00000110: 73bf dcbc 4238 b33d dc85 fabd 6b78 adbc
00000120: 0016 ebbd 069b a5bd f116 cdbd f181 583c
00000130: a25d 97bd fb07 42bc 35ba 9dbc c98a 9fbc
00000140: 923c 063e ae46 b0bc 4303 5b3d a6f0 143e
00000150: 2b0d cb3d ca35 973c c66b 19be 017d a83c
00000160: 628b c63d 620e 49bd ce8a 00be 2fb0 a73d
00000170: a930 a8bc da80 22be 4d52 bebd 7d8e 19be
00000180: 2b65 1c3e 297d adbd 29eb 5dbd 5a38 82bc
00000190: 91c4 94bd d43c 443d 086d c73d d22a 173d
000001a0: 7d32 03be 4275 523d 095e f1bd 5038 9fbc
000001b0: a3b3 afbd eb03 fa3d 54d6 81bd c42f a73d
000001c0: 359d 86bc 5c77 903c 331b 533e ff82 d53b
000001d0: ce79 b1bd 46b9 0f3e 1894 2cbd 747e 9ebd
000001e0: 046d 12be 7f03 d53d e35e 123d d848 a1bd
000001f0: 3d16 80bd 1503 cfbc 5961 d33d 4567 8bbd
00000200: 9530 0cbe 5dd9 aabd 7dc3 853d 5140 153e
00000210: 790e d63d bf4a 3d3e 5f22 573d b0f5 00be
00000220: 9d1a 2f3d 2b49 86bd a962 f83d e9a2 a7bd
00000230: 90da ae3d c0cd 08be eade 8d3d ae9e 733d
00000240: 03a7 f73d eac3 ea3d f075 103e 6478 be3d
00000250: cf90 20bd c6dd 393e ba37 09be d9ae 03be
00000260: c14a 32bc 072f b23d 5970 073e adb5 483e
00000270: 6bc6 d53c 9947 e83d 9570 b83c 4554 233e
00000280: 3eb4 debd 3ba6 983d 507f edbd a32a 38bd
00000290: f136 90bd 4fbb b1bc 96b7 d3bd 0109 3bbe
000002a0: e38c 1f3d 3746 1ebb 27b2 4fbc ce0a cbbd
000002b0: ee61 e93d 77a0 123e 4f73 52bd 631d 3cbe
000002c0: c3bc 513d 671c 3cbe 3138 343d d913 07be
000002d0: 7c30 12be 87a6 ddbd 96ad 9b3d 5db4 093d
000002e0: 4cec 0f3d 6e75 183e a73d 3dbd ca66 523d
000002f0: 609f b63d c7b8 dd3d 1866 3ebe 2589 cfbd
00000300: 41e2 32be 489d 4abd 4816 553d cf3f a8bd
00000310: 4bdf c9bd 7710 99bd 539c 623b 8bf0 bdbc
00000320: f460 ea3a c5b7 c03d 63b5 1cbe ec84 9cbd
00000330: 9618 83bd 9802 acbd f2ed e13d 9d97 cabd
00000340: 02ae 8ebd 5438 c63d ff3f aa3d 8143 5abd
00000350: d669 80bd 7681 d63b f9f0 a4ba ee39 b1bd
00000360: 3329 d5bd 470c ce3d 44c7 13be 9d31 e5bd
00000370: 2a10 2dbd a024 f73d f858 fcbd dcee 49bd
00000380: 8778 e73d 3cfb 8b3d 2e9f a33d 35a6 2fbd
00000390: ef3c 2fbd c9c9 2abd 816d a5bc d25a 8b3c
000003a0: e8b2 93bc f481 98bc e895 07be 9426 a5bd
000003b0: c594 893d 1453 98bd c3bd 9e3c b672 4a3e
000003c0: a829 313e 40c1 c7bd 665e 293d 965a 863c
000003d0: ca0a 57bd 4fd0 d1bc 320b 2e3b d413 093e
000003e0: a4f9 2f3d 4068 4d3e 4d95 bb3d 7378 513e
000003f0: d46d 253e 8485 573d b01f b13d 0ef7 09be

ac_layers.0.bias f4 [32]
0.09678801 -0.13517326 -0.092769645 0.05839642 0.13109529 0.14545527 -0.08436289 0.13936022
-0.1525582 0.097989395 0.11504074 -0.020670405 -0.092853256 -0.055530537 0.10295085 0.0019098627
-0.08295642 -0.09754517 -0.16938068 0.009840976 -0.059321288 0.09736443 0.021473689 0.07582921
0.17572783 -0.14065352 0.1396053 0.10342007 -0.06038671 -0.13554224 -0.0981824 0.17256875
00000000: cb38 c63d dc6a 0abe 03fe bdbd 1631 6f3d
00000010: d83d 063e 3af2 143e 73c6 acbd 72b4 0e3e
00000020: 3738 1cbe aaae c83d 7b9a eb3d fb54 a9bc
00000030: d929 bebd fd73 63bd e5d7 d23d 5c54 fa3a
00000040: 0ee5 a9bd c3c5 c7bd 2172 2dbe 0c3c 213c
00000050: e1fa 72bd 0167 c73d 97e9 af3c 584c 9b3d
00000060: fff1 333e 7a07 10be b1f4 0e3e e7cd d33d
00000070: 0e58 77bd 96cb 0abe db13 c9bd ddb5 303e

ac_layers.1.weight f4 [32, 32]
-0.107196346 -0.061461695 -0.02336957 -0.0068778927 0.0057037063 -0.08401457 0.17293715 0.10916023
-0.09259877 -0.13631724 -0.18670154 -0.018643 -0.15423252 0.15710214 0.046010245 0.011836992
0.032143366 -0.017515292 -0.1343147 -0.18562621 0.13222538 0.115777425 0.098167405 0.13967459
-0.18050449 -0.17050572 0.093476735 0.15147069 0.05441353 0.08751285 0.06786184 0.047926005
-0.007916276 -0.06082169 -0.003662303 0.17273965 0.036384895 -0.13401116 0.017131135 0.13714114
0.053544044 -0.104711965 -0.044375896 0.11966536 0.082729116 -0.09740119 -0.10647447 0.03933799
-0.14166942 0.13652489 0.049701717 0.16416289 0.0059714457 0.15557331 0.03422335 -0.030509057
0.14683262 -0.08422501 -0.034664825 0.17149937 0.065624535 -0.10658534 0.037935983 0.15989403
0.11747803 0.04864619 0.17397197 0.10006301 -0.02503902 -0.14397287 -0.048692048 0.025262503
-0.16342133 0.12423195 -0.1775645 0.15046474 -0.08302467 0.03386025 -0.16537671 0.0712755
0.095251225 0.05256627 0.08894982 0.027798578 0.14914452 0.06278923 0.05637467 -0.06163843
-0.09868807 -0.15075703 0.03352879 0.1456601 0.11062513 0.1598727 0.13119848 -0.1352104
-0.11486611 0.13148166 -0.016892163 -0.14699511 0.0028575594 -0.13451889 0.13321312 -0.017632676
-0.16031352 0.058473323 0.028534548 0.089056306 -0.1290186 0.09874238 -0.124937534 0.013070387
0.11892584 0.0231484 -0.1400183 -0.16708073 0.15177952 0.16196105 -0.036608204 0.03322465
0.08401414 -0.16000624 0.05200251 -0.1330356 -0.12239268 0.048190545 0.16625936 0.0734694
-0.027006214 0.1548458 -0.03616477 0.056520518 -0.03452271 -0.086412154 -0.17250623 0.14201085
-0.05705341 -0.09049824 0.0035897263 -0.016086102 -0.056456923 0.071393035 0.12702325 -0.15661152
0.08030197 -0.10030601 -0.047555946 0.06274386 -0.11869129 -0.17027812 -0.047954936 0.06849249
-0.17637202 -0.0038022753 -0.09222367 -0.08767984 0.08715102 0.16716866 -0.16404621 -0.06699728
0.18044364 0.0891414 -0.15791509 0.028782926 -0.13370508 0.13602068 0.0560604 0.1692368
-0.028865889 0.08080673 -0.0861755 -0.09662341 0.16585492 0.053925876 -0.07836504 -0.022701466
0.010786353 0.045344453 -0.06548723 0.002434243 -0.07506809 -0.07586243 -0.15170652 0.16429406
0.0042160093 0.1317561 0.04690839 0.14959955 0.17652342 -0.0047797454 -0.03632164 0.088149734
-0.13954428 -0.09687975 -0.034524653 -0.15857534 -0.11389438 0.049342908 -0.0191899 0.06157203
-0.1366036 0.06576304 -0.12313598 0.03137235 0.049669623 0.12926413 0.116683654 0.13222097
0.06505082 0.018986436 -0.15376054 0.037791543 -0.17100883 0.0481045 -0.028921027 -0.11233057
-0.0008428433 -0.11349066 0.09229333 -0.14508542 -0.081324115 0.01453622 -0.06806306 0.0788603
0.05135998 0.09475388 -0.017889991 -0.16570827 -0.121437766 -0.1427172 0.14102052 -0.054312557
0.00959757 -0.11592363 -0.095513314 0.10319956 -0.027571112 0.047326148 0.14093964 0.026905194
-0.048898622 0.12970005 0.020512152 0.14349812 -0.0650843 -0.078929834 0.0644266 -0.13314693
0.063074954 -0.08491401 -0.07580979 -0.01942386 -0.020758137 0.17140324 -0.13636848 0.08051458
00000000: c289 dbbd 42bf 7bbd 8a71 bfbc f25f e1bb
00000010: 28e6 ba3b d50f acbd 7016 313e 668f df3d
00000020: 6da4 bdbd bf96 0bbe b02e 3fbe 34b9 98bc
00000030: 21ef 1dbe 62df 203e 3d75 3c3d f1ef 413c
00000040: c3a8 033d 3b7c 8fbc cb89 09be cc14 3ebe
00000050: 1766 073e b71c ed3d fe0b c93d db06 0f3e
00000060: 2bd6 38be 0d99 2ebe bb70 bf3d 221b 1b3e
00000070: b9e0 5e3d f039 b33d 26fb 8a3d 0f4e 443d
00000080: 45b3 01bc 2a20 79bd 4003 70bb aae2 303e
00000090: 5408 153d 393a 09be 9856 8c3c ba6e 0c3e
000000a0: 0051 5b3d 3a73 d6bd 80c3 35bd 1d13 f53d
000000b0: e26d a93d 467a c7bd 490f dabd df20 213d
000000c0: ca11 11be 2ecd 0b3e 0794 4b3d 511a 283e
000000d0: 1eac c33b 9c4e 1f3e c92d 0c3d 21ee f9bc
000000e0: 4a5b 163e 297e acbd b4fc 0dbd 889d 2f3e
000000f0: 2866 863d 6a49 dabd c362 1b3d 43bb 233e
00000100: 5298 f03d 3a41 473d b525 323e d6ed cc3d
00000110: a21e cdbc a06d 13be 5071 47bd 4ff3 ce3c
00000120: ec57 27be 526d fe3d 78d3 35be 6e13 1a3e
00000130: d708 aabd 0cb1 0a3d 8358 29be e4f8 913d
00000140: 1313 c33d bb4f 573d 532b b63d d8b9 e33c
00000150: 57b9 183e a497 803d 20e9 663d 9478 7cbd
00000160: f91c cabd 0d60 1abe 7c55 093d ec27 153e
00000170: 6e8f e23d abb5 233e e558 063e 9874 0abe
00000180: ec3e ebbd 21a3 063e 6f61 8abc e385 16be
00000190: e445 3b3b 52bf 09be 0569 083e 6772 90bc
000001a0: 3a29 24be b981 6f3d 49c1 e93c 2763 b63d
000001b0: 741d 04be 7239 ca3d 40df ffbd 2d25 563c
000001c0: 648f f33d b7a1 bd3c f560 0fbe 3617 2bbe
000001d0: 176c 1b3e 1ed9 253e 7cf2 15bd 9216 083d
000001e0: 9b0f ac3d add8 23be 9500 553d 7c3a 08be
000001f0: 03a9 fabd 7363 453d e53f 2a3e 2077 963d
00000200: 233c ddbc e68f 1e3e 8321 14bd 0f82 673d
00000210: af67 0dbd dbf8 b0bd 79a5 30be 4b6b 113e
00000220: d6b0 69bd 2457 b9bd 9d41 6b3b 00c7 83bc
00000230: 603f 67bd 8336 923d 6212 023e c55e 20be
00000240: 5c75 a43d 3d6d cdbd 06ca 42bd da7f 803d
00000250: 6b14 f3bd 635d 2ebe 656c 44bd ca45 8c3d
00000260: de9a 34be 982f 79bb c3df bcbd 7d91 b3bd
00000270: 3c7c b23d 432e 2b3e bbfb 27be df35 89bd
00000280: 38c6 383e c48f b63d 7eb4 21be 2cca eb3c
00000290: fce9 08be 0149 0b3e 979f 653d 694c 2d3e
000002a0: 2878 ecbc 007e a53d c87c b0bd 7fe2 c5bd
000002b0: dfd5 293e 61e1 5c3d da7d a0bd 6df8 b9bc
000002c0: 3eb9 303c 1bbb 393d 2b1e 86bd d287 1f3b
000002d0: 4cbd 99bd c35d 9bbd f458 1bbe b43c 283e
000002e0: 7326 8a3b 12eb 063e 0323 403d a030 193e
000002f0: 8ec2 343e 699f 9cbb 00c6 14bd d987 b43d
00000300: b2e4 0ebe e468 c6bd b969 0dbd 9361 22be
00000310: 7541 e9bd ca1b 4a3d 2334 9dbc f432 7c3d
00000320: d0e1 0bbe c6ae 863d b72e fcbd 4b80 003d
00000330: 6072 4b3d d15d 043e d7f7 ee3d ef64 073e
00000340: 5d39 853d 7189 9b3c 6773 1dbe 4ecb 1a3d
00000350: f01c 2fbe 3909 453d caeb ecbc 920d e6bd
00000360: 42f2 5cba cb6d e8bd 4904 bd3d 4691 14be
00000370: 428d a6bd 5329 6e3c a564 8bbd 8281 a13d
00000380: d85e 523d 520e c23d 088e 92bc 6eaf 29be
00000390: 5db4 f8bd 7524 12be af67 103e d876 5ebd
000003a0: 203f 1d3c 5e69 edbd 7c9c c3bd 4a5a d33d
000003b0: d0dc e1bc 10d9 413d 7b52 103e 4868 dc3c
000003c0: ec49 48bd 17d0 043e 1a09 a83c 2cf1 123e
000003d0: eb4a 85bd f7a5 a1bd 18f2 833d ab57 08be
000003e0: 712d 813d 65e7 adbd 2a42 9bbd c91e 9fbc
000003f0: f80c aabc 5584 2f3e 2ea4 0bbe d4e4 a43d

ac_layers.1.bias f4 [32]
0.14899912 0.16208692 -0.18049528 -0.05499229 0.14901583 0.1303737 0.10226114 -0.07776706
0.1493609 0.12624115 0.010132207 -0.0042308783 0.07635543 0.0076838667 0.05066879 0.021589732
0.10373277 -0.17079002 0.027209746 0.024332039 0.142469 0.06386377 -0.06704719 0.20631523
0.008391075 -0.05368344 -0.08006421 -0.012223193 0.12445797 -0.120781854 0.16872174 0.054838747
00000000: 3a93 183e 1dfa 253e c1d3 38be 983f 61bd
00000010: 9b97 183e af80 053e 4a6e d13d 5644 9fbd
00000020: 10f2 183e 5c45 013e 8e01 263c 2ea3 8abb
00000030: 3c60 9c3d f2c8 fb3b 148a 4f3d f3dc b03c
00000040: d971 d43d 94e3 2ebe f9e6 de3c fc53 c73c
00000050: 65e3 113e 02cb 823d 0a50 89bd 4d44 533e
00000060: b87a 093c 2be3 5bbd b4f8 a3bd ca43 48bc
00000070: d2e3 fe3d 7a5c f7bd 64c5 2c3e 989e 603d

ac_layers.2.weight f4 [32, 32]
0.14923829 0.15805897 -0.13151313 0.049397916 0.12205662 0.1101787 -0.06424323 0.109739214
-0.11517099 0.15774655 0.14047691 0.123192094 0.0944586 -0.10690841 -0.10966726 -0.073437534
0.1207205 -0.13005087 -0.16865034 -0.016089609 -0.045619424 0.004806515 -0.10423286 0.08540691
0.0065228334 -0.09585074 -0.17892532 -0.17122847 -0.06903533 -0.0035301272 -0.010644602 -0.061783116
-0.052994795 0.020711884 -0.137744 -0.14193001 -0.10596946 -0.016031861 0.056353807 -0.17352256
0.15993954 0.043383583 -0.15515904 0.11283399 0.13272132 -0.15655105 0.16874827 -0.07256869
-0.13560784 0.15608697 0.076395795 -0.11739105 -0.14974748 -0.07219831 0.0014748722 0.0116458535
0.14526947 -0.15986702 -0.15170275 0.063034445 -0.13391718 -0.020543367 -0.12977116 0.07565184
-0.15531465 0.12502663 -0.16322458 0.13428107 0.11677471 0.038650967 0.17625858 0.110638924
0.14541122 0.02207967 -0.107663214 0.10325261 -0.061747655 0.13999292 -0.16135275 0.041294
0.13984588 0.02035642 0.016746048 -0.035757896 0.1897774 -0.053121775 0.14067918 -0.08088802
-0.08870944 -0.017383303 -0.0121255675 -0.031276207 -0.1107835 0.11108048 -0.12812202 0.13392062
0.06371313 0.059600323 -0.08432543 0.013906511 0.11376516 -0.017845271 0.09075184 0.10033493
-0.049146224 -0.18834971 -0.11187225 0.15522432 -0.1611429 -0.15660457 -0.0026142448 -0.088094495
0.06062652 -0.026741661 -0.14609806 -0.14089711 -0.06988144 -0.006475112 -0.060085468 0.07242773
-0.1836458 -0.1014799 -0.040563956 -0.0055176993 0.07429786 -0.13619284 -0.035088893 0.06388879
-0.005820603 0.10128811 0.14338231 -0.056498777 -0.16307959 -0.11724875 0.09130701 -0.17566136
0.017879635 0.015363635 -0.09987881 -0.16496225 0.015585823 0.21246473 0.009008095 -0.04948691
0.20643577 -0.06861918 0.10722297 0.06240854 0.16584799 0.15652473 0.20601033 -0.00965604
-0.13893731 -0.0329203 -0.024758995 -0.081753165 0.0031792219 -0.12949996 -0.13069582 0.045037556
-0.08753104 0.14318623 -0.13974199 0.074976265 0.045882624 0.08362261 0.01806577 -0.102701545
0.075578295 -0.1261396 0.17057723 -0.15173657 0.039842587 -0.102585755 0.087523594 -0.15450919
0.044791415 0.12022459 -0.03255484 -0.12172519 0.07014176 0.13107274 -0.046571698 -0.028538361
-0.1782335 -0.16700049 0.005175039 0.11558656 -0.13296397 0.010048537 -0.16659878 0.1339507
0.09068309 -0.12578475 0.12249459 -0.11800342 0.15822627 0.120249555 0.06332417 -0.17288603
-0.07086788 0.08271934 -0.16120595 0.08452313 -0.07115279 -0.12918901 -0.0019290447 0.027094603
0.13361247 -0.11252848 -0.14367983 -0.05952684 0.033580527 -0.07877537 -0.06731693 -0.06172269
0.0758151 0.0231978 0.15495081 0.11209227 -0.15310527 0.0456596 -0.15481327 -0.16302483
-0.048914656 0.21665029 0.008971756 -0.114065684 -0.15192206 0.17164066 0.14382273 -0.09845884
0.15899086 0.08695308 -0.043968756 0.057158493 0.049614776 -0.0012319329 -0.045171797 0.17296615
0.11401334 0.09481528 0.09586677 0.16415027 -0.015589737 0.0064901887 0.1874927 0.14491065
0.07907573 -0.04169704 5.6623967e-06 0.032304388 -0.09118833 0.12436675 -0.07126352 -0.123087265
00000000: ecd1 183e 36da 213e 61ab 06be 7855 4a3d
00000010: d2f8 f93d 5fa5 e13d f491 83bd f4be e03d
00000020: c5de ebbd 5088 213e 2ed9 0f3e 234c fc3d
00000030: 8373 c13d ccf2 dabd 3a99 e0bd 6b66 96bd
00000040: 4f3c f73d 0e2c 05be adb2 2cbe 5bce 83bc
00000050: 6fdb 3abd f87f 9d3b 0a78 d5bd d1e9 ae3d
00000060: 7ebd d53b 654d c4bd 3338 37be 8456 2fbe
00000070: 6562 8dbd b559 67bb b266 2ebc 4b10 7dbd
00000080: 1211 59bd f8ab a93c c30c 0dbe 1a56 11be
00000090: 8406 d9bd 4055 83bc 40d3 663d e6af 31be
000000a0: 31c7 233e fcb2 313d 03e2 1ebe 8215 e73d
000000b0: 19e8 073e eb4e 20be 59cc 2c3e e59e 94bd
000000c0: c8dc 0abe 43d5 1f3e 6675 9c3d b86a f0bd
000000d0: 6757 19be b5dc 93bd 8050 c13a 40ce 3e3c
000000e0: 85c1 143e 2eb4 23be f757 1bbe 3418 813d
000000f0: 9621 09be 904a a8bc bbe2 04be 5aef 9a3d
00000100: ce0a 1fbe fb06 003e 5824 27be fa80 093e
00000110: 9427 ef3d 7a50 1e3d 217d 343e a996 e23d
00000120: aee6 143e 6de0 b43c 887e dcbd 1b76 d33d
00000130: 1ceb 7cbd 4e5a 0f3e a839 25be e623 293d
00000140: c233 0f3e 82c2 a63c 022f 893c df76 12bd
00000150: 0255 423e 3896 59bd 340e 103e 9ea8 a5bd
00000160: 4bad b5bd 6e67 8ebc 51aa 46bc 7b1b 00bd
00000170: 76e2 e2bd 2a7e e33d 6b32 03be 7d22 093e
00000180: 087c 823d 781f 743d d0b2 acbd 22d8 633c
00000190: b5fd e83d 3f30 92bc 1adc b93d 667c cd3d
000001a0: 8d4d 49bd bfde 40be 471d e5bd 20f3 1e3e
000001b0: a502 25be f35c 20be c053 2bbb e36a b4bd
000001c0: 8453 783d 5411 dbbc bb9a 15be 5547 10be
000001d0: 001e 8fbd 2d2d d4bb 2e1c 76bd fd54 943d
000001e0: a50d 3cbe b2d4 cfbd 6426 26bd d1cd b4bb
000001f0: 7a29 983d 2376 0bbe 5fb9 0fbd 20d8 823d
00000200: c2ba bebb 2470 cf3d d0d2 123e 436b 67bd
00000210: 56fe 26be 1d20 f0bd 2bff ba3d 92e0 33be
00000220: 5078 923c c1b7 7b3c 438d ccbd ddeb 28be
00000230: ae5b 7f3c 5b90 593e b096 133c c9b2 4abd
00000240: e663 533e 3688 8cbd b797 db3d 19a0 7f3d
00000250: 0ed4 293e 0548 203e 5ff4 523e 5e34 1ebc
00000260: 9545 0ebe 70d7 06bd 60d3 cabc 346e a7bd
00000270: 7e5a 503b a39b 04be 20d5 05be 4d79 383d
00000280: 7943 b3bd 699f 123e 8618 0fbe 288d 993d
00000290: 6bef 3b3d 5542 ab3d aafe 933c 3055 d2bd
000002a0: cbc8 9a3d bd2a 01be ccab 2e3e d560 1bbe
000002b0: fb31 233d 7b18 d2bd 923f b33d a837 1ebe
000002c0: 3477 373d 4f38 f63d 3958 05bd 0e4b f9bd
000002d0: 7ca6 8f3d ef37 063e f7c1 3ebd 48c9 e9bc
000002e0: d882 36be 2d02 2bbe 6093 a93b a5b8 ec3d
000002f0: b527 08be 9ea2 243c df98 2abe 5f2a 093e
00000300: 0eb8 b93d b8cd 00be 72de fa3d c7ab f1bd
00000310: 1106 223e 6645 f63d 1ab0 813d 0909 31be
00000320: 2e23 91bd c268 a93d 2c13 25be 761a ad3d
00000330: 8eb8 91bd 204a 04be 00d8 fcba 80f5 dd3c
00000340: b5d1 083e 5575 e6bd ce20 13be 6ad2 73bd
00000350: bc8b 093d fb54 a1bd 75dd 89bd eed0 7cbd
00000360: f244 9b3d 5009 be3c 6dab 1e3e a290 e53d
00000370: a1c7 1cbe 9005 3b3d 5f87 1ebe fbef 26be
00000380: bc5a 48bd 93d9 5d3e 46fe 123c 459b e9bd
00000390: 7591 1bbe 92c2 2f3e 4446 133e caa4 c9bd
000003a0: 80ce 223e 7514 b23d 9518 34bd 061f 6a3d
000003b0: dd38 4b3d cf78 a1ba 1006 39bd 0a1e 313e
000003c0: d37f e93d 832e c23d cc55 c43d 0217 283e
000003d0: 196c 7fbc a6ab d43b 16fe 3f3e 7563 143e
000003e0: 75f2 a13d 84ca 2abd 9eff bd36 9b51 043d
000003f0: f2c0 babd ffb3 fe3d 9cf2 91bd 2d15 fcbd

ac_layers.2.bias f4 [32]
-0.09257581 -0.09913425 0.015656041 0.1285718 0.063008375 0.00058810855 -0.103220135 0.061919555
0.0108837485 -0.0037227634 -0.15387903 -0.06659832 -0.088162504 0.16540082 -0.15197751 0.1532414
-0.08732277 -0.10244725 0.071170606 0.069536075 -0.12449087 0.15131558 -0.13227955 0.09209492
0.108379595 0.16097237 0.016640048 -0.016328983 -0.07407258 -0.03678777 -0.13708264 -0.1588847
00000000: 6398 bdbd e606 cbbd 1941 803c 53a8 033e
00000010: 890a 813d 4c2b 1a3a 1465 d3bd 5c9f 7d3d
00000020: c051 323c 9bf9 73bb 7792 1dbe b364 88bd
00000030: 8b8e b4bd d55e 293e fe9f 1bbe 50eb 1c3e
00000040: 48d6 b2bd ddcf d1bd e5c1 913d ee68 8e3d
00000050: 12f5 febd 79f2 1a3e 4a74 07be 439c bc3d
00000060: 1ff6 dd3d f1d5 243e b650 883c 5cc4 85bc
00000070: 5db3 97bd c6ae 16bd 645f 0cbe acb2 22be

cr_layers.0.weight f4 [32, 32]
-0.054039963 0.047953438 0.028350864 0.038633645 0.037161328 -0.07925622 0.04576673 0.007932138
-0.042695664 -0.07586814 0.04076735 0.038616374 -0.10567635 0.22014795 0.1565938 0.04640178
-0.057739247 -0.1054412 -0.13803703 0.18706532 0.086964116 0.10264222 0.12390427 0.12080006
-0.030356891 0.0586286 0.17177486 0.19407623 -0.07058264 -0.09422312 0.10316519 0.07971417
0.1361987 -0.18304846 -0.01189144 0.048621684 -0.08962684 -0.16153629 0.13819256 -0.17449282
-0.18651271 -0.06355861 -0.113123864 -0.117667265 -0.18648086 0.10126809 0.08804658 -0.02477579
0.09903508 -0.14771299 -0.1460534 0.07332883 0.07308511 -0.06655279 0.114549145 0.0863504
-0.18979475 0.051567327 -0.12378227 -0.18887976 -0.049164366 -0.014036546 0.018461933 0.0014475506
0.18396898 0.17596756 0.14899792 0.080767766 0.19288373 0.08525761 -0.0816305 0.12727281
0.05841996 -0.17163278 0.09149354 0.16348472 -0.011476127 0.120480776 0.122710094 -0.05671749
-0.14395161 -0.055802666 0.08234057 -0.11896545 0.087940894 -0.059952095 0.123909995 0.09570561
0.27527323 -0.043852508 0.09629865 0.20448971 -0.015034231 0.14834988 0.02807691 0.07589196
0.14634044 0.0837964 -0.033107277 0.06959156 -0.06561609 0.04190209 0.03704831 -0.03653929
-0.09776185 -0.0260458 -0.060694255 -0.025654748 0.016805796 -0.042885397 -0.006206572 -0.03294604
-0.1278691 -0.14879549 -0.023641594 0.18903968 0.15640657 -0.024559166 0.10031526 -0.051624075
0.23810935 -0.042104915 0.17798837 0.09035423 -0.09598632 -0.0673846 -0.11203459 0.13854608
0.021898508 -0.065086216 0.17569913 0.16211067 0.0018633306 -0.07400662 -0.15415113 0.014234841
0.1707605 -0.17570052 -0.05237285 -0.08441617 0.037174195 -0.122061886 -0.14040847 0.08627598
0.15628715 -0.16509727 -0.1570569 -0.15382032 -0.1269274 -0.052300803 -0.08898584 -0.11723304
0.097855404 0.024289548 -0.06886453 0.06222734 0.06333938 -0.14140007 -0.012251332 -0.16898562
0.014939404 0.077159464 -0.11427624 0.021709519 0.02735515 -0.061027415 0.05108608 0.1167448
0.07112728 0.07924841 -0.18311189 0.10932812 -0.07725608 -0.1781038 -0.17160603 -0.004780825
0.11081769 0.026524857 -0.048749506 -0.2159393 0.020151272 -0.04222903 -0.03732255 -0.007064104
-0.013213477 0.07309449 0.12742694 -0.029062105 0.039670985 -0.12083808 0.12361389 -0.095248125
0.19708999 0.120320246 0.19420224 0.08288124 0.028855465 -0.030626263 -0.027554937 0.03874809
0.06492399 -0.05939327 0.07789414 0.15433763 -0.05916364 0.0038911551 -0.05559097 0.12632798
0.14151733 -0.019591974 -0.0026734902 0.18224674 0.16456813 0.15973486 0.15105642 0.13786067
-0.0713815 -0.040224675 0.09948758 0.21033144 -0.10974832 -0.035532422 -0.13821043 0.07702521
-0.08357408 0.031252686 0.14509454 0.083180785 -0.03739144 0.14864114 0.15626848 0.066421546
0.1481506 0.054239035 0.075854674 -0.09192101 0.09692409 -0.007079224 0.112603344 -0.016275441
0.045445472 0.117836036 0.027232992 0.0455341 0.0035935815 0.07592937 -0.11676732 0.05037254
0.004282187 -0.05722276 0.07302682 0.054406114 0.12995918 0.07274412 0.1245361 0.058185037
00000000: 0259 5dbd d36a 443d 1240 e83c 503e 1e3d
00000010: 7a36 183d 1651 a2bd e575 3b3d ccf5 013c
00000020: a6e1 2ebd c160 9bbd aafb 263d 342c 1e3d
00000030: d86c d8bd 776e 613e 205a 203e cb0f 3e3d
00000040: fd7f 6cbd 8ef1 d7bd 9459 0dbe 0d8e 3f3e
00000050: 3e1a b23d 1636 d23d 86c1 fd3d 0666 f73d
00000060: 04af f8bc 8b24 703d c0e5 2f3e ebbb 463e
00000070: a28d 90bd 0df8 c0bd 4548 d33d 2f41 a33d
00000080: ac77 0b3e 0e71 3bbe 50d4 42bc 8827 473d
00000090: 478e b7bd c569 25be 5a82 0d3e 3fae 32be
000000a0: 30fd 3ebe 042b 82bd 7cad e7bd 89fb f0bd
000000b0: d7f4 3ebe a565 cf3d c451 b43d 99f6 cabc
000000c0: e7d2 ca3d 1342 17be 068f 15be 6d2d 963d
000000d0: a5ad 953d d44c 88bd be98 ea3d 7ad8 b03d
000000e0: 8e59 42be 4338 533d 8f81 fdbd b269 41be
000000f0: 9360 49bd 8bf9 65bc 7b3d 973c bdbb bd3a
00000100: 5d62 3c3e d730 343e e992 183e 9269 a53d
00000110: 5083 453e 8b9b ae3d e42d a7bd ce53 023e
00000120: c549 6f3d 81c0 2fbe f760 bb3d 8a68 273e
00000130: 5e06 3cbc a0be f63d 6e4f fb3d 9950 68bd
00000140: 0d68 13be 5691 64bd 2ca2 a83d 28a4 f3bd
00000150: 5b1a b43d 5490 75bd 86c4 fd3d 4e01 c43d
00000160: 9df0 8c3e b09e 33bd 3a38 c53d c065 513e
00000170: 2352 76bc 08e9 173e 8c01 e63c 3e6d 9b3d
00000180: 45da 153e 729d ab3d 7f9b 07bd 0586 8e3d
00000190: bb61 86bd 87a1 2b3d f8bf 173d 39aa 15bd
000001a0: 5d37 c8bd 005e d5bc 8a9a 78bd e829 d2bc
000001b0: 4fac 893c 99a8 2fbd 8060 cbbb 6df2 06bd
000001c0: 1ef0 02be d85d 18be 04ac c1bc 9e93 413e
000001d0: 0b29 203e 4e30 c9bc 1672 cd3d c473 53bd
000001e0: f0d2 733e 3476 2cbd 9542 363e a30b b93d
000001f0: 7a94 c4bd f000 8abd 6472 e5bd 06df 0d3e
00000200: 8064 b33c ec4b 85bd 79ea 333e 5700 263e
00000210: 003b f43a c890 97bd cbd9 1dbe 4039 693c
00000220: d7db 2e3e d6ea 33be ea84 56bd 63e2 acbd
00000230: f843 183d 95fb f9bd 3dc7 0fbe 76b1 b03d
00000240: bd09 203e 420f 29be 86d3 20be 1383 1dbe
00000250: 42f9 01be 5e39 56bd 353e b6bd e017 f0bd
00000260: 6a68 c83d e0fa c63c d908 8dbd 18e2 7e3d
00000270: 14b8 813d 2ecb 10be d0b9 48bc 910a 2dbe
00000280: 67c4 743c c805 9e3d a909 eabd 29d8 b13c
00000290: e817 e03c e2f7 79bd a33f 513d e617 ef3d
000002a0: 2eab 913d fe4c a23d af81 3bbe 6ce7 df3d
000002b0: 7038 9ebd d860 36be 7eb9 2fbe 78a8 9cbb
000002c0: 63f4 e23d a84a d93c 90ad 47bd 311f 5dbe
000002d0: 4814 a53c 59f8 2cbd 88df 18bd 007a e7bb
000002e0: 577d 58bc 90b2 953d 357c 023e a713 eebc
000002f0: 0b7e 223d f579 f7bd 4729 fd3d 7311 c3bd
00000300: f5d1 493e 766a f63d f4dc 463e a4bd a93d
00000310: 4c62 ec3c eee3 fabc e4ba e1bc 51b6 1e3d
00000320: def6 843d 5c46 73bd f686 9f3d af0a 1e3e
00000330: 9355 72bd c002 7f3b 5bb3 63bd 1f5c 013e
00000340: ebe9 103e 597f a0bc b935 2fbb e49e 3a3e
00000350: 8c84 283e 8991 233e 89ae 1a3e 592b 0d3e
00000360: 7730 92bd a1c2 24bd 25c0 cb3d 2061 573e
00000370: bac3 e0bd 728a 11bd 0987 0dbe 65bf 9d3d
00000380: e328 abbd d102 003d aa93 143e b05a aa3d
00000390: c427 19bd 6235 183e d804 203e 0508 883d
000003a0: cab4 173e c029 5e3d b259 9b3d 1541 bcbd
000003b0: 2380 c63d d6f8 e7bb 959c e63d 1354 85bc
000003c0: 0825 3a3d 0554 f13d b917 df3c f781 3a3d
000003d0: 4b82 6b3b dc80 9b3d b423 efbd 7053 4e3d
000003e0: 9751 8c3b 6a62 6abd 168f 953d f2d8 5e3d
000003f0: 0514 053e dffa 943d c80c ff3d 6f53 6e3d

cr_layers.0.bias f4 [32]
-0.11725736 0.041712977 0.029779203 -0.010941893 -0.14513834 -0.046335947 0.23395863 0.2089074
0.042419355 0.21782336 0.05138078 0.028027236 0.21684182 0.0491534 -0.08615189 0.20878178
0.21212779 -0.078262 0.17477621 0.12783855 -0.122230366 -0.02890034 -0.03218828 0.1308911
-0.06821319 0.046626825 -0.11924448 0.1341857 -0.15758538 -0.069764055 0.04014754 -0.11463035
00000000: a024 f0bd 3adb 2a3d 84f3 f33c a045 33bc
00000010: 259f 14be c3ca 3dbd da92 6f3e d2eb 553e
00000020: ebbf 2d3d 160d 5f3e a774 523d 6099 e53c
00000030: c80b 5e3e 1355 493d 6770 b0bd e4ca 553e
00000040: 0738 593e d447 a0bd 89f8 323e 1ce8 023e
00000050: ea53 fabd 68c0 ecbc dcd7 03bd 5108 063e
00000060: 5bb3 8bbd c5fb 3e3d 7336 f4bd fa67 093e
00000070: 105e 21be 75e0 8ebd bf71 243d 51c3 eabd

cr_layers.1.weight f4 [32, 32]
-0.019158544 0.029793441 0.21257852 0.15581603 -0.016536027 -0.048777774 -0.07936094 0.059798762
0.13635273 0.049449757 -0.01515045 -0.05121346 0.111604854 -0.16591777 -0.06905061 0.1023588
0.2195923 -0.08591266 -0.049243785 0.041999616 0.12241696 -0.11769821 -0.047365032 -0.01702605
-0.06308947 0.18084578 0.13733472 0.16049406 0.1178595 0.067757845 0.025901973 0.18441227
-0.07471557 0.1403584 -0.014015733 0.17736226 -0.08057099 0.019904314 0.04442486 0.1172533
0.12687331 0.041244194 -0.04338683 0.072540894 0.14564294 0.048654497 0.033899732 0.14690773
0.07229505 -0.14219272 -0.110464774 0.19904798 -0.008290574 -0.17138289 -0.0006128642 -0.109148666
0.16596991 0.17728382 0.009537924 0.09735065 -0.07454363 -0.11525524 0.022192277 0.14163616
0.07140275 0.08867962 0.10745967 -0.057853978 0.14586838 0.00804306 0.02284779 -0.01792915
-0.08462895 0.106795445 0.06319983 0.10830827 0.19562507 0.022655876 0.032279905 0.074763246
0.021638935 -0.027000569 0.18737589 0.034153547 -0.01624085 0.039234325 0.12475873 0.19318834
0.10569384 0.19740893 -0.029518725 0.056721542 0.12731685 0.10103889 -0.04230423 0.124770105
-0.06832282 0.12799998 -0.029769167 -0.007884935 -0.10847206 0.101521835 0.14072068 0.12736098
-0.04602529 0.15446077 -0.13679563 -0.03805749 -0.16589299 -0.15289193 0.07836561 -0.12793922
-0.102867514 -0.1356568 -0.1336328 0.041740805 0.1469687 0.16808657 0.06381591 -0.14739965
0.00018939376 -0.018407166 -0.009633467 -0.061228663 0.039474964 -0.07463971 0.006468937 0.13644563
0.04805377 0.03839968 -0.0059076548 0.003348127 -0.14356497 0.032541335 0.054650158 0.12520985
-0.16178276 0.123564914 0.08598454 -0.117335096 -0.15379861 -0.052769035 0.08921589 0.011285365
-0.15321544 0.060586646 0.15121038 -0.17261326 -0.13946919 0.06702599 -0.13464886 -0.09827218
0.038730294 0.07033546 -0.13026956 0.049839273 0.028879836 0.15395685 -0.17527917 -0.01838854
-0.03948868 -0.030401211 0.1828995 0.04273089 -0.093466364 0.14280419 0.21160549 0.015558716
0.19400206 -0.04872826 0.1683502 -0.00629054 0.064960964 -0.116148226 -0.1397112 -0.0054577696
0.10815433 0.14964879 0.088109076 -0.06716047 0.067448586 0.05198285 0.11678591 -0.058989357
-0.037606325 0.10116999 -0.09480484 0.057524905 0.06065163 -0.041475385 0.1620199 -0.038109735
0.15983586 0.08884521 -0.11223291 -0.10022149 0.14437939 0.12532496 0.13524881 -2.1100626e-05
-0.1466815 -0.0044084233 0.02876485 -0.16238277 0.16252533 -0.051189367 -0.17118973 0.009979648
0.16111505 0.08752971 0.10951593 -0.07221789 -0.09381077 0.057949364 0.05220171 0.02875101
-0.074399754 0.036244705 -0.03625457 0.009511552 -0.16226499 -0.04083027 -0.010984048 -0.0613349
-0.057482693 0.047033787 -0.0030422022 0.08919964 -0.028918684 0.05587126 0.13586989 0.13093963
-0.08716103 0.17768984 0.08341514 0.013830453 0.18292378 0.072496004 0.015028209 0.17329302
0.10742115 0.026326528 -0.023407672 0.06570843 0.13681109 0.11785208 0.106790066 -0.11524719
0.026258737 -0.03083682 -0.03889747 -0.024100903 -0.09791804 -0.12536958 -0.14854155 0.13244516
00000000: 61f2 9cbc 6011 f43c 2fae 593e 3d8e 1f3e
00000010: 9076 87bc 34cb 47bd fd87 a2bd 8cef 743d
00000020: 0da0 0b3e d48b 4a3d 9839 78bc 34c5 51bd
00000030: 1691 e43d 59e6 29be 686a 8dbd 7ea1 d13d
00000040: cedc 603e faf2 afbd dab3 49bd ca07 2c3d
00000050: beb5 fa3d c20b f1bd d601 42bd 377a 8bbc
00000060: 0d35 81bd a32f 393e 79a1 0c3e 8e58 243e
00000070: 5260 f13d a0c4 8a3d 6030 d43c 92d6 3c3e
00000080: 7a04 99bd 1dba 0f3e 3fa2 65bc 749e 353e
00000090: 6702 a5bd 5f0e a33c d8f6 353d 8022 f03d
000000a0: 14eb 013e acef 283d 63b6 31bd 5290 943d
000000b0: 6c23 153e f049 473d 72da 0a3d fb6e 163e
000000c0: 6d0f 943d f89a 11be 5b3b e2bd 3cd3 4b3e
000000d0: 30d5 07bc ff7e 2fbe 9fa8 20ba 5689 dfbd
000000e0: 04f4 293e e489 353e f444 1c3c c75f c73d
000000f0: 55aa 98bd f00a ecbd 94cc b53c 1209 113e
00000100: 9b3b 923d a99d b53d d113 dc3d 4bf8 6cbd
00000110: 855e 153e 0ac7 033c 4a2b bb3c 27e0 92bc
00000120: f151 adbd 92b7 da3d ea6e 813d bad0 dd3d
00000130: f051 483e d198 b93c ef37 043d 791d 993d
00000140: 2344 b13c 4c30 ddbc 77df 3f3e 97e4 0b3d
00000150: 880b 85bc 2cb4 203d 8181 ff3d 2ad3 453e
00000160: 0376 d83d 9125 4a3e 41d1 f1bc d954 683d
00000170: 595f 023e 7aed ce3d 3347 2dbd 7887 ff3d
00000180: d6ec 8bbd 6d12 033e 78de f3bc d02f 01bc
00000190: 9926 debd aeea cf3d 1519 103e eb6a 023e
000001a0: 0485 3cbd f72a 1e3e 2714 0cbe 2ce2 1bbd
000001b0: dadf 29be b48f 1cbe 267e a03d 8002 03be
000001c0: 34ac d2bd 9ee9 0abe 09d7 08be 68f8 2a3d
000001d0: f77e 163e e31e 2c3e eab1 823d efef 16be
000001e0: 0098 4639 a0ca 96bc b0d5 1dbc e8ca 7abd
000001f0: 80b0 213d b4dc 98bd 60f9 d33b 67b8 0b3e
00000200: 08d4 443d fc48 1d3d 0095 c1bb 406c 5b3b
00000210: b202 13be 104a 053d d8d8 5f3d 0337 003e
00000220: 61aa 25be 9a0f fd3d aa18 b03d 624d f0bd
00000230: 627d 1dbe 5824 58bd d2b6 b63d 40e6 383c
00000240: 82e4 1cbe b429 783d e5d6 1a3e 88c1 30be
00000250: 03d1 0ebe ec44 893d 64e1 09be ed42 c9bd
00000260: a8a3 1e3d 0a0c 903d 6265 05be 4424 4c3d
00000270: 6895 ec3c dda6 1d3e 627c 33be 90a3 96bc
00000280: e2be 21bd f60b f9bc 024a 3b3e 9606 2f3d
00000290: 4b6b bfbd 433b 123e 1caf 583e fce9 7e3c
000002a0: 7aa8 463e 4997 47bd ff63 2c3e e020 cebb
000002b0: 410a 853d 1fdf edbd 7410 0fbe 17d7 b2bb
000002c0: 0480 dd3d 883d 193e 8872 b43d 6e8b 89bd
000002d0: 7c22 8a3d f8eb 543d 742d ef3d d39e 71bd
000002e0: 1709 1abd 3632 cf3d 0a29 c2bd 3c9f 6b3d
000002f0: d86d 783d 18e2 29bd 8be8 253e f418 1cbd
00000300: 03ac 233e 7af4 b53d 5eda e5bd ed40 cdbd
00000310: 31d8 133e 3055 003e aa7e 0a3e 4001 b1b7
00000320: ad33 16be 8974 90bb 43a4 eb3c ab47 26be
00000330: 0a6d 263e f1ab 51bd 5c4c 2fbe ad81 233c
00000340: 58fb 243e c742 b33d e349 e03d f9e6 93bd
00000350: dc1f c0bd 505c 6d3d 76d1 553d 3d87 eb3c
00000360: e65e 98bd 5475 143d ac7f 14bd 57d6 1b3c
00000370: cb28 26be a43d 27bd 70f6 33bc 4e3a 7bbd
00000380: f972 6bbd 80a6 403d af5f 47bb 4dae b63d
00000390: e0e6 ecbc 43d9 643d 7a21 0b3e 0a15 063e
000003a0: 7b81 b2bd 53f4 353e 8fd5 aa3d 2099 623c
000003b0: 5f50 3b3e c978 943d e138 763c ba73 313e
000003c0: 9fff db3d bbaa d73c 72c1 bfbc 2492 863d
000003d0: 3518 0c3e 6e5c f13d c0b4 da3d b806 ecbd
000003e0: 901c d73c 809d fcbc f452 1fbd 426f c5bc
000003f0: 4189 c8bd e260 00be 471b 18be b49f 073e

cr_layers.1.bias f4 [32]
-0.13984427 0.22470856 0.211938 -0.08626769 -0.14385565 0.100919664 0.09618508 0.027968494
-0.11260647 0.11705324 -0.014326987 0.07216491 -0.16724154 -0.08451819 0.10306515 0.13184994
-0.16568385 -0.046237767 0.1834778 -0.096955575 -0.11482711 0.06644871 -0.072042085 0.10079167
0.028862476 -0.0004257111 -0.16119173 0.18660769 0.1145164 0.14541271 -0.06591373 -0.085946694
00000000: 5633 0fbe 001a 663e 4606 593e 1dad b0bd
00000010: e54e 13be f8ae ce3d affc c43d 2f1e e53c
00000020: 399e e6bd 9cb9 ef3d bdbb 6abc 32cb 933d
00000030: 5e41 2bbe df17 adbd d213 d33d ac03 073e
00000040: 07a9 29be d063 3dbd 9be1 3b3e a590 c6bd
00000050: 7a2a ebbd 4316 883d cd8a 93bd dd6b ce3d
00000060: 0071 ec3c fa31 dfb9 720f 25be 1616 3f3e
00000070: 9387 ea3d 12e7 143e c7fd 86bd d204 b0bd
